Model
________________________________________________________________________________
Layer (type)                        Output Shape                    Param #     
================================================================================
dense_1 (Dense)                     (None, 10)                      110         
________________________________________________________________________________
dense_2 (Dense)                     (None, 27)                      297         
________________________________________________________________________________
dropout_1 (Dropout)                 (None, 27)                      0           
________________________________________________________________________________
dense_3 (Dense)                     (None, 26)                      728         
________________________________________________________________________________
dropout_2 (Dropout)                 (None, 26)                      0           
________________________________________________________________________________
dense_4 (Dense)                     (None, 2)                       54          
================================================================================
Total params: 1,189
Trainable params: 1,189
Non-trainable params: 0
________________________________________________________________________________


